…
e/VisDrone2019-DET-train.zip to /kaggle/working/datasets/VisDrone/VisDrone2019-DET-train...: 100% ━━━━━━━━━━━━ 12945/12945 2.2Kfiles/s 5.8ss<0.1s Converting train: ━━━━━━━━━━━━ 6471 2.5Kit/s 2.6s Converting val: ━━━━━━━━━━━━ 548 1.5Kit/s 0.2ss Converting test: ━━━━━━━━━━━━ 1610 2.4Kit/s 0.6s Dataset download success ✅ (91.6s), saved to /kaggle/working/datasets Downloading https://ultralytics.com/assets/Arial.ttf to '/root/.config/Ultralytics/Arial.ttf': 100% ━━━━━━━━━━━━ 755.1KB 5.0MB/s 0.1s 0.1s<0.2s Overriding model.yaml nc=80 with nc=10 from n params module arguments 0 -1 1 464 ultralytics.nn.modules.conv.Conv [3, 16, 3, 2] 1 -1 1 4672 ultralytics.nn.modules.conv.Conv [16, 32, 3, 2] 2 -1 1 7360 ultralytics.nn.modules.block.C2f [32, 32, 1, True] 3 -1 1 18560 ultralytics.nn.modules.conv.Conv [32, 64, 3, 2] 4 -1 2 49664 ultralytics.nn.modules.block.C2f [64, 64, 2, True] 5 -1 1 73984 ultralytics.nn.modules.conv.Conv [64, 128, 3, 2] 6 -1 2 197632 ultralytics.nn.modules.block.C2f [128, 128, 2, True] 7 -1 1 295424 ultralytics.nn.modules.conv.Conv [128, 256, 3, 2] 8 -1 1 460288 ultralytics.nn.modules.block.C2f [256, 256, 1, True] 9 -1 1 164608 ultralytics.nn.modules.block.SPPF [256, 256, 5] 10 -1 1 0 torch.nn.modules.upsampling.Upsample [None, 2, 'nearest'] 11 [-1, 6] 1 0 ultralytics.nn.modules.conv.Concat [1] 12 -1 1 148224 ultralytics.nn.modules.block.C2f [384, 128, 1] 13 -1 1 0 torch.nn.modules.upsampling.Upsample [None, 2, 'nearest'] 14 [-1, 4] 1 0 ultralytics.nn.modules.conv.Concat [1] 15 -1 1 37248 ultralytics.nn.modules.block.C2f [192, 64, 1] 16 -1 1 36992 ultralytics.nn.modules.conv.Conv [64, 64, 3, 2] 17 [-1, 12] 1 0 ultralytics.nn.modules.conv.Concat [1] 18 -1 1 123648 ultralytics.nn.modules.block.C2f [192, 128, 1] 19 -1 1 147712 ultralytics.nn.modules.conv.Conv [128, 128, 3, 2] 20 [-1, 9] 1 0 ultralytics.nn.modules.conv.Concat [1] 21 -1 1 493056 ultralytics.nn.modules.block.C2f [384, 256, 1] 22 [15, 18, 21] 1 753262 ultralytics.nn.modules.head.Detect [10, 16, None, [64, 128, 256]] YOLOv8n summary: 130 layers, 3,012,798 parameters, 3,012,782 gradients, 8.2 GFLOPs Freezing layer 'model.22.dfl.conv.weight' AMP: running Automatic Mixed Precision (AMP) checks... Downloading https://github.com/ultralytics/assets/releases/download/v8.4.0/yolo26n.pt to 'yolo26n.pt': 100% ━━━━━━━━━━━━ 5.3MB 19.7MB/s 0.3s.2s<0.1s1s AMP: checks passed ✅ train: Fast image 
…
s/detect/Kaggle_Benchmark_VisDrone/DFEM_Run, save_frames=False, save_json=False, save_period=-1, save_txt=False, scale=0.5, seed=0, shear=0.0, show=False, show_boxes=True, show_conf=True, show_labels=True, simplify=True, single_cls=False, source=None, split=val, stream_buffer=False, task=detect, time=None, tracker=botsort.yaml, translate=0.1, val=True, verbose=True, vid_stride=1, visualize=False, warmup_bias_lr=0.1, warmup_epochs=3.0, warmup_momentum=0.8, weight_decay=0.0005, workers=8, workspace=None Overriding model.yaml nc=80 with nc=10 from n params module arguments 0 -1 1 464 ultralytics.nn.modules.conv.Conv [3, 16, 3, 2] 1 -1 1 4672 ultralytics.nn.modules.conv.Conv [16, 32, 3, 2] 2 -1 3 102924 TuaBottleneck.TuaBottleneck [32, 32, True] 3 -1 1 18560 ultralytics.nn.modules.conv.Conv [32, 64, 3, 2] 4 -1 6 694104 TuaBottleneck.TuaBottleneck [64, 64, True] 5 -1 1 73984 ultralytics.nn.modules.conv.Conv [64, 128, 3, 2] 6 -1 6 2518488 TuaBottleneck.TuaBottleneck [128, 128, True] 7 -1 1 295424 ultralytics.nn.modules.conv.Conv [128, 256, 3, 2] 8 -1 3 4779372 TuaBottleneck.TuaBottleneck [256, 256, True] 9 -1 1 164608 ultralytics.nn.modules.block.SPPF [256, 256, 5] 10 -1 1 0 torch.nn.modules.upsampling.Upsample [None, 2, 'nearest'] 11 [-1, 6] 1 0 ultralytics.nn.modules.conv.Concat [1] 12 -1 3 312576 ultralytics.nn.modules.block.C2f [384, 128, 3] 13 -1 1 0 torch.nn.modules.upsampling.Upsample [None, 2, 'nearest'] 14 [-1, 4] 1 0 ultralytics.nn.modules.conv.Concat [1] 15 -1 3 78464 ultralytics.nn.modules.block.C2f [192, 64, 3] 16 12 1 0 torch.nn.modules.upsampling.Upsample [None, 2, 'nearest'] 17 9 1 0 torch.nn.modules.upsampling.Upsample [None, 4, 'nearest'] 18 [15, 16, 17] 1 0 ultralytics.nn.modules.conv.Concat [1] 19 18 1 41280 saclseq.Scalseq [64, 128, 256] 20 -1 1 12448 zoomcat.Zoomcat [64] 21 [15, 12, 9] 1 753262 ultralytics.nn.modules.head.Detect [10, 16, None, [64, 128, 256]] dfem_net summary: 297 layers, 9,850,630 parameters, 9,850,614 gradients, 15.9 GFLOPs Freezing layer 'model.21.dfl.conv.weight' AMP: running Automatic Mixed Precision (AMP) checks... Downloading https://github.com/ultralytics/assets/releases/download/v8.4.0/yolo26n.pt to 'yolo26n.pt': 100% ━━━━━━━━━━━━ 5.3MB 22.7MB/s 0.2s.2s<0.1s7s AMP: checks passed ✅ train: Fast imag
…
